…
-----------------------------------------------------------------------------------------------------------------------------------------------------------------------------------
Total memory: 72.94MB
Total MAdd: 6.83GMAdd
Total Flops: 3.43GFlops
Total MemR+W: 175.23MB
-----------------------------------------------------------------------------------------------------------------------------------------------------------------------------------


YoloBody(
  5.92 M, 100.000% Params, 3.43 GMac, 100.000% MACs,
  (backbone): CSPDarkNet(
    3.63 M, 61.334% Params, 2.58 GMac, 75.330% MACs,
    (conv1): BasicConv(  K3 S2 P1
      928, 0.016% Params, 41.53 MMac, 1.212% MACs,
      (conv): Conv2d(864, 0.015% Params, 37.38 MMac, 1.090% MACs, 3, 32, kernel_size=(3, 3), stride=(2, 2), padding=(1, 1), bias=False)
      (bn): BatchNorm2d(64, 0.001% Params, 2.77 MMac, 0.081% MACs, 32, eps=1e-05, momentum=0.1, affine=True, track_running_stats=True)
      (activation): LeakyReLU(0, 0.000% Params, 1.38 MMac, 0.040% MACs, negative_slope=0.1)
    )
    (conv2): BasicConv(
      18.56 k, 0.314% Params, 201.44 MMac, 5.876% MACs,
      (conv): Conv2d(18.43 k, 0.311% Params, 199.36 MMac, 5.815% MACs, 32, 64, kernel_size=(3, 3), stride=(2, 2), padding=(1, 1), bias=False)
      (bn): BatchNorm2d(128, 0.002% Params, 1.38 MMac, 0.040% MACs, 64, eps=1e-05, momentum=0.1, affine=True, track_running_stats=True)
      (activation): LeakyReLU(0, 0.000% Params, 692.22 KMac, 0.020% MACs, negative_slope=0.1)
    )
    (resblock_body1): Resblock_body(
      59.78 k, 1.010% Params, 650.0 MMac, 18.961% MACs,
      (conv1): BasicConv(
        36.99 k, 0.625% Params, 400.8 MMac, 11.691% MACs,
        (conv): Conv2d(36.86 k, 0.623% Params, 398.72 MMac, 11.631% MACs, 64, 64, kernel_size=(3, 3), stride=(1, 1), padding=(1, 1), bias=False)
        (bn): BatchNorm2d(128, 0.002% Params, 1.38 MMac, 0.040% MACs, 64, eps=1e-05, momentum=0.1, affine=True, track_running_stats=True)
        (activation): LeakyReLU(0, 0.000% Params, 692.22 KMac, 0.020% MACs, negative_slope=0.1)
      )
      (conv2): BasicConv(
        9.28 k, 0.157% Params, 100.72 MMac, 2.938% MACs,
        (conv): Conv2d(9.22 k, 0.156% Params, 99.68 MMac, 2.908% MACs, 32, 32, kernel_size=(3, 3), stride=(1, 1), padding=(1, 1), bias=False)
        (bn): BatchNorm2d(64, 0.001% Params, 692.22 KMac, 0.020% MACs, 32, eps=1e-05, momentum=0.1, affine=True, track_running_stats=True)
        (activation): LeakyReLU(0, 0.000% Params, 346.11 KMac, 0.010% MACs, negative_slope=0.1)
      )
      (conv3): BasicConv(
        9.28 k, 0.157% Params, 100.72 MMac, 2.938% MACs,
        (conv): Conv2d(9.22 k, 0.156% Params, 99.68 MMac, 2.908% MACs, 32, 32, kernel_size=(3, 3), stride=(1, 1), padding=(1, 1), bias=False)
        (bn): BatchNorm2d(64, 0.001% Params, 692.22 KMac, 0.020% MACs, 32, eps=1e-05, momentum=0.1, affine=True, track_running_stats=True)
        (activation): LeakyReLU(0, 0.000% Params, 346.11 KMac, 0.010% MACs, negative_slope=0.1)
      )
      (conv4): BasicConv(
        4.22 k, 0.071% Params, 46.38 MMac, 1.353% MACs,
        (conv): Conv2d(4.1 k, 0.069% Params, 44.3 MMac, 1.292% MACs, 64, 64, kernel_size=(1, 1), stride=(1, 1), bias=False)
        (bn): BatchNorm2d(128, 0.002% Params, 1.38 MMac, 0.040% MACs, 64, eps=1e-05, momentum=0.1, affine=True, track_running_stats=True)
        (activation): LeakyReLU(0, 0.000% Params, 692.22 KMac, 0.020% MACs, negative_slope=0.1)
      )
      (maxpool): MaxPool2d(0, 0.000% Params, 1.38 MMac, 0.040% MACs, kernel_size=[2, 2], stride=[2, 2], padding=0, dilation=1, ceil_mode=False)
    )
    (resblock_body2): Resblock_body(
      238.34 k, 4.027% Params, 646.19 MMac, 18.850% MACs,
      (conv1): BasicConv(
        147.71 k, 2.496% Params, 399.76 MMac, 11.661% MACs,
        (conv): Conv2d(147.46 k, 2.492% Params, 398.72 MMac, 11.631% MACs, 128, 128, kernel_size=(3, 3), stride=(1, 1), padding=(1, 1), bias=False)
        (bn): BatchNorm2d(256, 0.004% Params, 692.22 KMac, 0.020% MACs, 128, eps=1e-05, momentum=0.1, affine=True, track_running_stats=True)
        (activation): LeakyReLU(0, 0.000% Params, 346.11 KMac, 0.010% MACs, negative_slope=0.1)
      )
      (conv2): BasicConv(
        36.99 k, 0.625% Params, 100.2 MMac, 2.923% MACs,
        (conv): Conv2d(36.86 k, 0.623% Params, 99.68 MMac, 2.908% MACs, 64, 64, kernel_size=(3, 3), stride=(1, 1), padding=(1, 1), bias=False)
        (bn): BatchNorm2d(128, 0.002% Params, 346.11 KMac, 0.010% MACs, 64, eps=1e-05, momentum=0.1, affine=True, track_running_stats=True)
        (activation): LeakyReLU(0, 0.000% Params, 173.06 KMac, 0.005% MACs, negative_slope=0.1)
      )
      (conv3): BasicConv(
        36.99 k, 0.625% Params, 100.2 MMac, 2.923% MACs,
        (conv): Conv2d(36.86 k, 0.623% Params, 99.68 MMac, 2.908% MACs, 64, 64, kernel_size=(3, 3), stride=(1, 1), padding=(1, 1), bias=False)
        (bn): BatchNorm2d(128, 0.002% Params, 346.11 KMac, 0.010% MACs, 64, eps=1e-05, momentum=0.1, affine=True, track_running_stats=True)
        (activation): LeakyReLU(0, 0.000% Params, 173.06 KMac, 0.005% MACs, negative_slope=0.1)
      )
      (conv4): BasicConv(
        16.64 k, 0.281% Params, 45.34 MMac, 1.323% MACs,
        (conv): Conv2d(16.38 k, 0.277% Params, 44.3 MMac, 1.292% MACs, 128, 128, kernel_size=(1, 1), stride=(1, 1), bias=False)
        (bn): BatchNorm2d(256, 0.004% Params, 692.22 KMac, 0.020% MACs, 128, eps=1e-05, momentum=0.1, affine=True, track_running_stats=True)
        (activation): LeakyReLU(0, 0.000% Params, 346.11 KMac, 0.010% MACs, negative_slope=0.1)
      )
      (maxpool): MaxPool2d(0, 0.000% Params, 692.22 KMac, 0.020% MACs, kernel_size=[2, 2], stride=[2, 2], padding=0, dilation=1, ceil_mode=False)
    )
    (resblock_body3): Resblock_body(
      951.81 k, 16.083% Params, 644.29 MMac, 18.794% MACs,
      (conv1): BasicConv(
        590.34 k, 9.975% Params, 399.24 MMac, 11.646% MACs,
        (conv): Conv2d(589.82 k, 9.967% Params, 398.72 MMac, 11.631% MACs, 256, 256, kernel_size=(3, 3), stride=(1, 1), padding=(1, 1), bias=False)
        (bn): BatchNorm2d(512, 0.009% Params, 346.11 KMac, 0.010% MACs, 256, eps=1e-05, momentum=0.1, affine=True, track_running_stats=True)
        (activation): LeakyReLU(0, 0.000% Params, 173.06 KMac, 0.005% MACs, negative_slope=0.1)
      )
      (conv2): BasicConv(
        147.71 k, 2.496% Params, 99.94 MMac, 2.915% MACs,
        (conv): Conv2d(147.46 k, 2.492% Params, 99.68 MMac, 2.908% MACs, 128, 128, kernel_size=(3, 3), stride=(1, 1), padding=(1, 1), bias=False)
        (bn): BatchNorm2d(256, 0.004% Params, 173.06 KMac, 0.005% MACs, 128, eps=1e-05, momentum=0.1, affine=True, track_running_stats=True)
        (activation): LeakyReLU(0, 0.000% Params, 86.53 KMac, 0.003% MACs, negative_slope=0.1)
      )
      (conv3): BasicConv(
        147.71 k, 2.496% Params, 99.94 MMac, 2.915% MACs,
        (conv): Conv2d(147.46 k, 2.492% Params, 99.68 MMac, 2.908% MACs, 128, 128, kernel_size=(3, 3), stride=(1, 1), padding=(1, 1), bias=False)
        (bn): BatchNorm2d(256, 0.004% Params, 173.06 KMac, 0.005% MACs, 128, eps=1e-05, momentum=0.1, affine=True, track_running_stats=True)
        (activation): LeakyReLU(0, 0.000% Params, 86.53 KMac, 0.003% MACs, negative_slope=0.1)
      )
      (conv4): BasicConv(
        66.05 k, 1.116% Params, 44.82 MMac, 1.307% MACs,
        (conv): Conv2d(65.54 k, 1.107% Params, 44.3 MMac, 1.292% MACs, 256, 256, kernel_size=(1, 1), stride=(1, 1), bias=False)
        (bn): BatchNorm2d(512, 0.009% Params, 346.11 KMac, 0.010% MACs, 256, eps=1e-05, momentum=0.1, affine=True, track_running_stats=True)
        (activation): LeakyReLU(0, 0.000% Params, 173.06 KMac, 0.005% MACs, negative_slope=0.1)
      )
      (maxpool): MaxPool2d(0, 0.000% Params, 346.11 KMac, 0.010% MACs, kernel_size=[2, 2], stride=[2, 2], padding=0, dilation=1, ceil_mode=False)
    )
    (conv3): BasicConv(
      2.36 M, 39.884% Params, 398.98 MMac, 11.638% MACs,
      (conv): Conv2d(2.36 M, 39.866% Params, 398.72 MMac, 11.631% MACs, 512, 512, kernel_size=(3, 3), stride=(1, 1), padding=(1, 1), bias=False)
      (bn): BatchNorm2d(1.02 k, 0.017% Params, 173.06 KMac, 0.005% MACs, 512, eps=1e-05, momentum=0.1, affine=True, track_running_stats=True)
      (activation): LeakyReLU(0, 0.000% Params, 86.53 KMac, 0.003% MACs, negative_slope=0.1)
    )
  )
  (conv_for_P5): BasicConv(
    131.58 k, 2.223% Params, 22.28 MMac, 0.650% MACs,
    (conv): Conv2d(131.07 k, 2.215% Params, 22.15 MMac, 0.646% MACs, 512, 256, kernel_size=(1, 1), stride=(1, 1), bias=False)
    (bn): BatchNorm2d(512, 0.009% Params, 86.53 KMac, 0.003% MACs, 256, eps=1e-05, momentum=0.1, affine=True, track_running_stats=True)
    (activation): LeakyReLU(0, 0.000% Params, 43.26 KMac, 0.001% MACs, negative_slope=0.1)
  )
  (yolo_headP5): Sequential(
    1.22 M, 20.601% Params, 206.12 MMac, 6.013% MACs,
    (0): BasicConv(
      1.18 M, 19.951% Params, 199.62 MMac, 5.823% MACs,
      (conv): Conv2d(1.18 M, 19.933% Params, 199.36 MMac, 5.815% MACs, 256, 512, kernel_size=(3, 3), stride=(1, 1), padding=(1, 1), bias=False)
      (bn): BatchNorm2d(1.02 k, 0.017% Params, 173.06 KMac, 0.005% MACs, 512, eps=1e-05, momentum=0.1, affine=True, track_running_stats=True)
      (activation): LeakyReLU(0, 0.000% Params, 86.53 KMac, 0.003% MACs, negative_slope=0.1)
    )
    (1): Conv2d(38.48 k, 0.650% Params, 6.5 MMac, 0.190% MACs, 512, 75, kernel_size=(1, 1), stride=(1, 1))
  )
  (upsample): Upsample(
    33.02 k, 0.558% Params, 5.69 MMac, 0.166% MACs,
    (upsample): Sequential(
      33.02 k, 0.558% Params, 5.69 MMac, 0.166% MACs,
      (0): BasicConv(
        33.02 k, 0.558% Params, 5.6 MMac, 0.163% MACs,
        (conv): Conv2d(32.77 k, 0.554% Params, 5.54 MMac, 0.162% MACs, 256, 128, kernel_size=(1, 1), stride=(1, 1), bias=False)
        (bn): BatchNorm2d(256, 0.004% Params, 43.26 KMac, 0.001% MACs, 128, eps=1e-05, momentum=0.1, affine=True, track_running_stats=True)
        (activation): LeakyReLU(0, 0.000% Params, 21.63 KMac, 0.001% MACs, negative_slope=0.1)
      )
      (1): Upsample(0, 0.000% Params, 86.53 KMac, 0.003% MACs, scale_factor=2.0, mode=nearest)
    )
  )
  (yolo_headP4): Sequential(
    904.52 k, 15.284% Params, 611.63 MMac, 17.841% MACs,
    (0): BasicConv(
      885.25 k, 14.959% Params, 598.6 MMac, 17.461% MACs,
      (conv): Conv2d(884.74 k, 14.950% Params, 598.08 MMac, 17.446% MACs, 384, 256, kernel_size=(3, 3), stride=(1, 1), padding=(1, 1), bias=False)
      (bn): BatchNorm2d(512, 0.009% Params, 346.11 KMac, 0.010% MACs, 256, eps=1e-05, momentum=0.1, affine=True, track_running_stats=True)
      (activation): LeakyReLU(0, 0.000% Params, 173.06 KMac, 0.005% MACs, negative_slope=0.1)
    )
    (1): Conv2d(19.27 k, 0.326% Params, 13.03 MMac, 0.380% MACs, 256, 75, kernel_size=(1, 1), stride=(1, 1))
  )
)